…
t http://localhost:6006/\n","Hyperparameters {'lr0': 0.01, 'momentum': 0.937, 'weight_decay': 0.0005, 'giou': 0.05, 'cls': 0.5, 'cls_pw': 1.0, 'obj': 1.0, 'obj_pw': 1.0, 'iou_t': 0.2, 'anchor_t': 4.0, 'fl_gamma': 0.0, 'hsv_h': 0.015, 'hsv_s': 0.7, 'hsv_v': 0.4, 'degrees': 0.0, 'translate': 0.5, 'scale': 0.5, 'shear': 0.0, 'perspective': 0.0, 'flipud': 0.0, 'fliplr': 0.5, 'mixup': 0.0}\n","Overriding ./models/yolov4-csp.yaml nc=80 with nc=1\n","\n","                 from  n    params  module                                  arguments                     \n","  0                -1  1       928  models.common.Conv                      [3, 32, 3, 1]                 \n","  1                -1  1     18560  models.common.Conv                      [32, 64, 3, 2]                \n","  2                -1  1     20672  models.common.Bottleneck                [64, 64]                      \n","  3                -1  1     73984  models.common.Conv                      [64, 128, 3, 2]               \n","  4                -1  1    119936  models.common.BottleneckCSP             [128, 128, 2]                 \n","  5                -1  1    295424  models.common.Conv                      [128, 256, 3, 2]              \n","  6                -1  1   1463552  models.common.BottleneckCSP             [256, 256, 8]                 \n","  7                -1  1   1180672  models.common.Conv                      [256, 512, 3, 2]              \n","  8                -1  1   5843456  models.common.BottleneckCSP             [512, 512, 8]                 \n","  9                -1  1   4720640  models.common.Conv                      [512, 1024, 3, 2]             \n"," 10                -1  1  12858368  models.common.BottleneckCSP             [1024, 1024, 4]               \n"," 11                -1  1   7610368  models.common.SPPCSP                    [1024, 512, 1]                \n"," 12                -1  1    131584  models.common.Conv                      [512, 256, 1, 1]              \n"," 13                -1  1         0  torch.nn.modules.upsampling.Upsample    [None, 2, 'nearest']          \n"," 14                 8  1    131584  models.common.Conv                      [512, 256, 1, 1]              \n"," 15          [-1, -2]  1         0  models.common.Concat                    [1]                           \n"," 16                -1  1   1642496  models.common.BottleneckCSP2            [512, 256, 2]                 \n"," 17                -1  1     33024  models.common.Conv                      [256, 128, 1, 1]              \n"," 18                -1  1         0  torch.nn.modules.upsampling.Upsample    [None, 2, 'nearest']          \n"," 19                 6  1     33024  models.common.Conv                      [256, 128, 1, 1]              \n"," 20          [-1, -2]  1         0  models.common.Concat                    [1]                           \n"," 21                -1  1    411648  models.common.BottleneckCSP2            [256, 128, 2]                 \n"," 22                -1  1    295424  models.common.Conv                      [128, 256, 3, 1]              \n"," 23                -2  1    295424  models.common.Conv                      [128, 256, 3, 2]              \n"," 24          [-1, 16]  1         0  models.common.Concat                    [1]                           \n"," 25                -1  1   1642496  models.common.BottleneckCSP2            [512, 256, 2]                 \n"," 26                -1  1   1180672  models.common.Conv                      [256, 512, 3, 1]              \n"," 27                -2  1   1180672  models.common.Conv                      [256, 512, 3, 2]              \n"," 28          [-1, 11]  1         0  models.common.Concat                    [1]                           \n"," 29                -1  1   6561792  models.common.BottleneckCSP2            [1024, 512, 2]                \n"," 30                -1  1   4720640  models.common.Conv                      [512, 1024, 3, 1]             \n"," 31      [22, 26, 30]  1     32310  models.yolo.Detect                      [1, [[12, 16, 19, 36, 40, 28], [36, 75, 76, 55, 72, 146], [142, 110, 192, 243, 459, 401]], [256, 512, 1024]]\n","Model Summary: 334 layers, 5.24994e+07 parameters, 5.24994e+07 gradients\n","\n","Optimizer groups: 111 .bias, 115 conv.weight, 108 other\n","Scanning labels ../train/labels.cac
…
